…
s),\n            (\"classifier\", self.fully_connected)\n        ]))\n\n    def forward(self, input):\n        return self.model(input)\n    \n\nLet’s take a look at model A with LocalResponseNormalization:\n\nVGG(\"A_LRN\").model\n\nc:\\Users\\edesa\\Desktop\\ML Research\\env\\lib\\site-packages\\torch\\nn\\modules\\lazy.py:180: UserWarning: Lazy modules are a new feature under heavy development so changes to the API or functionality can happen at any moment.\n  warnings.warn('Lazy modules are a new feature under heavy development '\n\n\nSequential(\n  (feature_extractor): Sequential(\n    (0): Conv2d(3, 64, kernel_size=(3, 3), stride=(1, 1), padding=same)\n    (1): ReLU()\n    (2): LocalResponseNorm(5, alpha=0.0001, beta=0.75, k=2)\n    (3): MaxPool2d(kernel_size=2, stride=2, padding=0, dilation=1, ceil_mode=False)\n    (4): Conv2d(64, 128, kernel_size=(3, 3), stride=(1, 1), padding=same)\n    (5): ReLU()\n    (6): MaxPool2d(kernel_size=2, stride=2, padding=0, dilation=1, ceil_mode=False)\n    (7): Conv2d(128, 256, kernel_size=(3, 3), stride=(1, 1), padding=same)\n    (8): ReLU()\n    (9): Conv2d(256, 256, kernel_size=(3, 3), stride=(1, 1), padding=same)\n    (10): ReLU()\n    (11): MaxPool2d(kernel_size=2, stride=2, padding=0, dilation=1, ceil_mode=False)\n    (12): Conv2d(256, 512, kernel_size=(3, 3), stride=(1, 1), padding=same)\n    (13): ReLU()\n    (14): Conv2d(512, 512, kernel_size=(3, 3), stride=(1, 1), padding=same)\n    (15): ReLU()\n    (16): MaxPool2d(kernel_size=2, stride=2, padding=0, dilation=1, ceil_mode=False)\n    (17): Conv2d(512, 512, kernel_size=(3, 3), stride=(1, 1), padding=same)\n    (18): ReLU()\n    (19): Conv2d(512, 512, kernel_size=(3, 3), stride=(1, 1), padding=same)\n    (20): ReLU()\n    (21): MaxPool2d(kernel_size=2, stride=2, padding=0, dilation=1, ceil_mode=False)\n  )\n  (classifier): Sequential(\n    (0): LazyLinear(in_features=0, out_features=4096, bias=True)\n    (1): ReLU()\n    (2): Linear(in_features=4096, out_features=4069, bias=True)\n    (3): ReLU()\n    (4): Linear(in_features=4096, out_features=1000, bias=True)\n  )\n)\n\n\n\n\nTraining\n\nbatch_size = 256\nmomentum = 0.9\nweight_decay = 5e-4\n\n\ndataset = datasets.Caltech256(\"data/\",\n                                download=True,\n                                transform=transforms.Compose([\n                                    gray_to_rgb,\n                                    transforms.ToTensor(),\n
…
